cifar10_model.tflite (tflite, 493752 bytes, 7 tensors)

arith.constant f4 [64, 3, 3, 64]
000000 70 eb 2a 3c 45 83 5c bd 1c 20 43 3d d6 9c 86 bd
       0.010432109 -0.053836126 0.047638044 -0.06572883
000010 40 f0 96 3a 10 61 76 3c d2 5d 8f 3d e0 ff 94 bc
       0.0011515692 0.01503779 0.07000317 -0.018188417
000020 1a 6e 8b 3d ae 7e 55 3d 92 eb 0b 3d 03 48 53 bd
       0.068081096 0.052122764 0.034160204 -0.051582348
000030 19 a3 46 bd 30 2b 85 3d 00 2d 46 3c 80 3e 39 3a
       -0.048495386 0.06502378 0.01209569 0.0007066503
000040 a4 d8 87 bd d8 ad 5d 3d b2 8a 08 bd 20 7f d5 3b
       -0.06633118 0.05412087 -0.033335395 0.0065153986
000050 58 e7 71 3d 1c 24 f6 3c 74 65 1d 3d 92 ce 3c bd
       0.059058517 0.030046515 0.03842683 -0.04609544
000060 90 5e 1d bc 48 d8 0b bd 96 09 88 bc fc 0b 87 bd
       -0.009605065 -0.03414181 -0.016606133 -0.06594083
000070 d2 a5 2d 3d 1c c8 99 bc 00 85 44 3d a0 27 0b 3b
       0.042394467 -0.018772177 0.0479784 0.0021233335
000080 60 5f 45 bb 8e f5 88 3d c6 34 35 bd fc f8 38 bd
       -0.0030116662 0.06687461 -0.04423978 -0.045159325
000090 d0 1d 77 3d 34 16 a6 3c 4c ac a7 bc 54 86 b2 bc
       0.060331166 0.02027426 -0.0204679 -0.021792568
0000a0 70 56 16 bd 3c cc 47 bd 40 01 8c 3c d2 d4 3f bd
       -0.036703527 -0.048778757 0.01709044 -0.04683382
0000b0 63 80 18 bd 20 cb 4f bd 10 68 af bc 73 fe 30 bd
       -0.037231814 -0.050730824 -0.021411926 -0.04321141
0000c0 3a e2 8f 3d 96 d1 07 bd 60 0d a3 bc 1e 14 33 3d
       0.07025571 -0.03315886 -0.019903839 0.043720357
0000d0 10 f7 d2 bb 60 2c ee 3c 80 cd b4 3a 48 fa 69 3c
       -0.0064381436 0.029073894 0.0013794154 0.014280863
0000e0 62 02 68 bd e0 77 8f bb c0 50 5e 3d d0 f3 b8 3c
       -0.056642897 -0.004378304 0.054276228 0.022577196
0000f0 40 f0 b1 3c cc ff 57 3d e9 73 6e bd ec d7 44 bd
       0.021721005 0.05273418 -0.05821601 -0.04805748
000100 e0 7c 45 bb 90 cf 4b 3c 7c 8c c5 3c 5c 5f 36 3d
       -0.0030134246 0.0124396235 0.02411484 0.044524536
000110 e7 36 4b bd 60 b4 99 3c 9c 50 84 bd 88 88 6c bd
       -0.049612906 0.018762767 -0.064606875 -0.057747394
000120 46 fa 89 3d f3 73 0f bd dc e9 f8 3c f8 0b 53 bd
       0.06737189 -0.035022687 0.03038495 -0.051525086
000130 b2 bf 45 bd 56 f3 36 3d aa 5a 9d bc 88 35 b0 3c
       -0.048278518 0.044665657 -0.019208271 0.0215099
000140 bf 20 7c bd 30 20 a0 3b 00 b0 90 ba 40 a0 f6 3a
       -0.061554667 0.0048866495 -0.001103878 0.0018816069
000150 26 07 33 3d 97 57 29 bd 0a d4 a4 bc 6a 41 bc bc
       0.04370799 -0.041343298 -0.02012064 -0.02298041
000160 dc ab f8 3c dd c6 7f bd 42 8c 15 bd a6 9f 40 bd
       0.030355386 -0.06244551 -0.036510713 -0.047027253
000170 f0 46 eb bb 06 85 10 3d ca 64 1b 3d 49 a4 8d bd
       -0.0071800873 0.03528311 0.037937917 -0.069161005
000180 1c 06 7c 3d 7c 8c 89 3d d4 e1 c3 bc 4c 7c d5 bc
       0.061529264 0.067162484 -0.023911394 -0.026060246
000190 38 db 3d 3d 31 df 6f bd fe b1 3e 3d d0 9b 19 bd
       0.04635164 -0.05856246 0.046556465 -0.03750211
0001a0 70 8d d2 bb 3a 12 1f 3d d8 ed 7f 3c 18 4a 0b 3d
       -0.006425552 0.03883574 0.015620671 0.03400621
0001b0 b0 52 4a bd 33 8c 28 bd a8 9d 66 3d 00 b2 18 3c
       -0.049395263 -0.04114933 0.056302696 0.009319782
0001c0 90 a6 c8 bb dc 74 97 bc b4 1b 81 3d 96 b7 4f 3d
       -0.0061233714 -0.01848834 0.06304112 0.05071219
0001d0 78 f5 7c 3c 2c 78 b7 3c 32 e9 4a bd 40 63 46 bb
       0.015439384 0.02239617 -0.0495388 -0.003027156
0001e0 84 83 f6 3c a8 13 57 bc e7 62 5d bd 8c ce 33 3d
       0.030092008 -0.013127245 -0.0540494 0.04389815
0001f0 94 93 6c 3d 94 02 7c bd 00 6f 27 bb 00 f1 64 3a
       0.05775793 -0.061525896 -0.002554834 0.00087334216
000200 c8 11 a1 3c 1c d5 7f 3d e0 7b 8f 3b 50 29 88 3d
       0.0196618 0.062459096 0.0043787807 0.06648505
000210 1c 0d 9c 3c 38 f1 14 bc 8c d4 61 3d e3 15 33 bd
       0.01904922 -0.009090714 0.05513434 -0.043722045
000220 78 d5 30 3c c4 e9 83 bd bc 80 9d bc 78 ac 55 bc
       0.010793082 -0.06441072 -0.019226424 -0.013041608
000230 6c f1 9b 3c ec fc bb bc 44 b4 b0 3c e6 42 90 3d
       0.019036017 -0.022947751 0.021570332 0.0704401
000240 bc 69 74 3d 1c c4 8b bd 7b d4 2e bd 0c 48 65 3d
       0.05967115 -0.06824514 -0.042683106 0.055976912
000250 9b bd 7d bd e0 5b 72 3d c0 47 9b 3b 88 4b ed 3c
       -0.0619484 0.05916965 0.004738778 0.02896668
000260 12 55 92 3d 70 42 87 bd 7c 15 fb 3c b0 a9 a0 3b
       0.07145132 -0.06604469 0.030649893 0.004903041
000270 60 10 77 3d b0 25 d5 3b 0e df 1a 3d 74 54 9d 3c
       0.06031835 0.006504737 0.037810378 0.01920531
000280 8f 4e 00 bd 13 a6 77 bd ac a2 f1 3c 16 bd 02 bd
       -0.03132492 -0.060461115 0.029496513 -0.031918608
000290 c4 f2 23 bc b8 a6 4c bc 68 37 27 3c 48 33 56 3c
       -0.01000661 -0.012490921 0.010206081 0.01307375
0002a0 64 af 66 3d 32 f1 1f 3d 80 2b 94 3b ec 5d 5e bd
       0.05631961 0.03904838 0.004521787 -0.05428879
0002b0 e0 8c 0a 3b fe bc 9d bc 12 de 07 3d 12 d1 86 3d
       0.0021141097 -0.019255158 0.033170767 0.06582846
0002c0 d0 09 b7 3c 80 80 1f bd c8 82 bd 3c c7 9a 74 bd
       0.022343546 -0.038940907 0.02313365 -0.05971792
0002d0 60 83 63 3c ae f2 87 3d 88 f4 3a 3d f8 a9 9e 3c
       0.013886303 0.06638084 0.04564336 0.019368157
0002e0 8e 58 52 3d 1a f6 3e 3d 56 8d 90 bc a8 f6 36 3d
       0.051353984 0.04662142 -0.01764552 0.044668823
0002f0 18 f8 da 3c d0 3c 63 3c 80 63 62 bc ba c4 10 3d
       0.026729628 0.013869479 -0.013817668 0.035343863
000300 60 e5 10 3c 00 f2 a0 3b 48 7d 8c 3c 06 55 93 3d
       0.00884375 0.004911661 0.017149583 0.07193951
000310 98 9a 6f 3d a0 4c 16 bb ec 6f 87 3d e0 bb 57 3c
       0.05849704 -0.0022933856 0.06613144 0.0131673515
000320 c0 de 7b 3c a7 34 07 bd 20 3a 8f 3d 32 76 e2 bc
       0.015372932 -0.033009198 0.06993508 -0.02764425
000330 76 7f 2a bd f8 ab 6a 3d 09 d1 7c bd 2c 96 04 3d
       -0.041625462 0.05729291 -0.06172279 0.032369778
000340 6c 3f 82 bd 68 bc ef 3c a4 f8 48 3d a8 a6 7f 3d
       -0.06359753 0.029264644 0.049065247 0.062414795
000350 3a 21 74 bd d2 4a 81 3d 54 d3 79 bc 7e bc 51 3d
       -0.059602 0.06313099 -0.015248138 0.05120515
000360 20 8b 5a 3c 60 61 8c 3d 1a 59 53 3d 7c a2 45 bd
       0.013338834 0.0685451 0.051598646 -0.04825066
000370 30 fd 2a bc 93 d2 67 bd b0 2b a5 bb 50 87 92 bd
       -0.010436341 -0.056597304 -0.0050406083 -0.07154715
000380 3c 93 71 3d 54 a9 2e bc 00 c8 e4 bb 78 91 79 3d
       0.058978304 -0.010660488 -0.0069818497 0.060929745
000390 be 78 b3 bc 98 36 73 3c 44 90 eb 3c e0 c9 45 3b
       -0.02190816 0.014844559 0.028755315 0.0030180141
0003a0 52 36 26 3d 48 8b b1 3c 06 98 17 3d 66 2e 43 3d
       0.040579148 0.02167286 0.037010215 0.04765167
0003b0 df 08 29 bd 9d d1 7b bd 00 05 d8 3a bc a3 23 bc
       -0.041268226 -0.0614792 0.0016480982 -0.009987768
0003c0 c8 6d 11 3c 56 21 82 bd c4 00 f1 bc 21 ce 89 bd
       0.008876272 -0.063540146 -0.02941931 -0.06728769
0003d0 08 e9 66 3d 7a 68 13 3d ec 8a 4b 3d 58 8c 58 3d
       0.05637458 0.03598831 0.049693033 0.052868217
0003e0 94 89 82 3c 34 9e a2 3c 90 da bc 3b 4c 21 6c 3d
       0.015934743 0.019850828 0.0057633594 0.057648942
0003f0 fc 09 36 bc d4 b6 b6 bc 42 21 36 bd 13 ea 2a bd
       -0.011110779 -0.022303976 -0.04446531 -0.041727137

arith.constant1 f4 [64, 3, 3, 32]
000000 b4 73 8a 3c 68 de 8c bd aa a0 1e 3d 6b e7 a1 bd
       0.016900875 -0.06878358 0.03872744 -0.079054676
000010 e6 1c 1b bd ab 47 93 3d e2 b4 2a 3d 26 c2 98 bd
       -0.037869357 0.07191404 0.04167641 -0.07458906
000020 f4 ae 97 3c 80 14 56 3c fa ce 19 3d a8 49 40 bc
       0.018516041 0.013066411 0.037550904 -0.011736311
000030 bb d8 75 bd 94 2e d9 3c 34 b2 88 bc c0 41 90 3c
       -0.060021143 0.026511468 -0.016686536 0.017609477
000040 f4 99 b1 3c e5 58 90 3d 15 30 9a 3d 80 67 4f bd
       0.021679856 0.07048205 0.07528702 -0.050635815
000050 96 9a bf bc 36 56 d1 bc b4 1a a6 3c a0 c3 25 bd
       -0.023389142 -0.025553804 0.020276405 -0.040469766
000060 86 ca 4f bd 80 02 02 3c 00 b7 34 3c 5a c1 47 3d
       -0.05073025 0.007935166 0.011029959 0.04876838
000070 28 a0 54 bc 9a 4b 64 3d 95 e8 9b 3d ab 98 6f bd
       -0.012977637 0.05573616 0.07612721 -0.058495205
000080 58 6e 8d bd c0 c0 9b ba e8 68 1b bc 2a 98 6e 3d
       -0.06905812 -0.0011883005 -0.009485461 0.058250584
000090 14 d6 f8 3c 13 3c 9a 3d 40 cd 7e bc 80 dc 1f 3c
       0.030375518 0.075309895 -0.015551865 0.009757161
0000a0 73 22 98 bd b0 94 38 bd 80 ce 89 bc ec 77 89 3c
       -0.07428446 -0.045063674 -0.0168221 0.016780816
0000b0 6b 97 96 bd 00 70 3e bc 58 a4 66 bc 7b 0d 79 bd
       -0.073530994 -0.011623383 -0.014077269 -0.06080387
0000c0 18 ac 27 3c d0 79 f8 3b e1 b7 9e 3d c8 6b 8f bd
       0.010233901 0.0075828806 0.07749916 -0.070029795
0000d0 ac 29 db bc ca 06 19 3d 75 70 8c 3d 40 2c a8 bc
       -0.02675327 0.03735999 0.06857387 -0.020528913
0000e0 6c cf b2 3c 80 85 5f 3c e0 b2 df 3c 8e 61 8c bd
       0.021827422 0.013642669 0.027306974 -0.068545446
0000f0 e8 13 a4 bd 2b fb 90 3d de 7c 8a bd 3a de 20 3d
       -0.08011609 0.070791565 -0.06762098 0.03927443
000100 f6 60 b5 bc 92 00 36 3d 30 53 a2 bb a0 1e 1a 3d
       -0.022140961 0.044434138 -0.0049537644 0.037626863
000110 02 00 49 3d c0 c3 9e 3c cd bc a8 3d 56 a0 bf bc
       0.049072273 0.01938045 0.08239136 -0.023391884
000120 26 e9 83 bd 40 b5 80 ba 73 4a a3 bd 50 85 a0 bb
       -0.06440954 -0.0009819642 -0.079731844 -0.0048987046
000130 58 85 42 bc ec 4e 8a bc b2 6c 79 3d 65 74 88 3d
       -0.011872612 -0.016883336 0.060894676 0.066628255
000140 96 95 6f 3d 28 50 0e bc e0 97 cd bc 73 0f 86 3d
       0.058492266 -0.008686103 -0.025096834 0.065459155
000150 46 c8 6e 3d 54 a9 bb 3c 00 c4 f3 bb 60 de 1e bd
       0.058296464 0.02290789 -0.0074391365 -0.038786292
000160 05 42 94 3d e9 61 99 3d b0 0a d1 3b 76 61 54 bd
       0.07239155 0.07489378 0.006379448 -0.05185076
000170 c0 9c 1b bd f4 c7 a1 bc 11 57 8d 3d 41 ad a4 3d
       -0.037991285 -0.019748665 0.06901372 0.08040858
000180 2b 45 9a bd e3 b6 90 3d 0c 15 e8 3c 1b ef 64 bd
       -0.07532724 0.07066133 0.028330348 -0.05589209
000190 d6 e5 08 bd 1e 25 9b bd 80 54 7b 3c a6 23 31 3d
       -0.033422314 -0.07575439 0.015339971 0.043246888
0001a0 60 b5 6c bb 0e 71 80 bd aa 26 5e 3d 60 e4 47 bd
       -0.003611885 -0.062715635 0.05423609 -0.04880178
0001b0 d8 2b a0 bd e6 9b 03 3d 96 a1 25 3d 33 96 87 bd
       -0.078208625 0.0321311 0.040437303 -0.06620445
0001c0 16 cd 7e 3d 9e 2d 9a bd b0 a1 00 3d 6e a8 85 bd
       0.062207304 -0.07528232 0.031404197 -0.06526266
0001d0 dd f9 93 3d 13 21 a0 3d b0 97 9f bd 68 e0 02 bc
       0.07225392 0.078188084 -0.07792604 -0.007988073
0001e0 06 c0 0c bd 59 f4 82 3d 3e 15 95 bd 6b 8c 6f bd
       -0.034362815 0.06394262 -0.07279442 -0.058483522
0001f0 40 8b 35 bd 73 e7 8a bd 9b f0 03 bd 16 91 99 bd
       -0.044322252 -0.06782427 -0.03221188 -0.07498376
000200 e6 43 1e bd 6a f9 33 3d 4b 34 4e bd 4c 4b c2 3c
       -0.03863897 0.04393903 -0.05034284 0.023717545
000210 76 fd 35 3d 9d c2 9c 3d 42 5e 52 3d a0 9c 29 3b
       0.044431172 0.07654307 0.051359423 0.002588071
000220 d0 05 82 bd e8 3c 6e bc 0e a9 9b bd f6 51 2c bd
       -0.06348765 -0.014540888 -0.07600604 -0.04207035
000230 18 84 0a bc d6 6e 06 3d 56 d9 31 bd eb 00 67 bd
       -0.008454345 0.032820545 -0.04342016 -0.05639736
000240 5b 7d 05 bd 74 4e 8d bc c0 72 02 3c cc f8 fe 3c
       -0.03259025 -0.017249323 0.007961929 0.031124495
000250 80 21 f5 bc 8c be c0 3c 20 3c d8 3c c0 f9 ba 3c
       -0.0299232 0.02352836 0.026395857 0.022824168
000260 a3 41 a7 bd d4 7d b3 3c da 0a 31 3d 2a 9d 1c 3d
       -0.08166816 0.021910585 0.04322324 0.03823582
000270 fd fa a6 3d 39 29 a5 3d 8b d1 15 bd 68 4c 14 bc
       0.08153341 0.08064503 -0.03657679 -0.00905142
000280 12 4c 32 3d 49 87 95 3d 68 df 7a 3c 86 fd 5d 3d
       0.043529578 0.07301194 0.015312053 0.054196857
000290 76 1e 8b bd e6 5c 64 3d 05 7c aa 3d e2 88 33 3d
       -0.06792919 0.055752657 0.08324436 0.043831713
0002a0 e0 67 70 bd 32 81 49 3d 58 b2 18 3c 2b 97 69 bd
       -0.058692813 0.049195476 0.009319864 -0.05702893
0002b0 e0 f6 10 3d 7b c4 9e 3d fb 71 0e bd 80 7b 28 3d
       0.03539169 0.077523194 -0.03477667 0.041133404
0002c0 1b 88 8f bd e0 6c a7 bd 80 bd 7c 3a 54 9b cf 3c
       -0.07008382 -0.08175063 0.0009641275 0.02534262
0002d0 40 bd 6c 3c 80 e0 68 3c f6 5e 0a 3d 00 86 13 3c
       0.014449418 0.014213681 0.033781968 0.009004116
0002e0 80 f3 22 3d 68 bb 10 bc f6 69 50 3d ec 83 8b bc
       0.039783 -0.008833744 0.050882302 -0.017030679
0002f0 33 14 a7 3d c0 60 14 3d a6 57 00 bd 91 ab 82 3d
       0.081581496 0.03622508 -0.031333588 0.0638038
000300 70 96 90 bd d4 32 dc 3c 74 f1 89 bc d0 5d ef bb
       -0.07059944 0.026879705 -0.016838767 -0.0073048845
000310 eb c6 86 bd b6 e1 5b 3d 26 ad 0c bd ea da 07 3d
       -0.06580909 0.05368205 -0.034344815 0.033167757
000320 16 c5 70 3d b0 a8 8d bb cb c8 5d bd 76 47 de bc
       0.058781706 -0.0043230876 -0.05414657 -0.027133685
000330 4c 0e f3 3c fa e9 72 3d 70 59 7c bd 38 ff 82 bd
       0.029669903 0.05930517 -0.06160873 -0.06396335
000340 b6 ed 15 bd 2a 48 22 3d 60 82 89 3c 40 6a 83 bd
       -0.036603652 0.039619602 0.0167858 -0.0641675
000350 8a 5d 27 3d 00 34 f6 b8 00 70 14 3c 76 62 68 bd
       0.04086069 -0.0001173988 0.009059906 -0.056734525
000360 03 78 8d 3d 76 4f 61 3d 40 1e 55 3c ec c4 ec 3c
       0.06907656 0.05500742 0.0130077 0.028902493
000370 0b 15 79 bd c6 7b 20 3d 00 00 ac b6 ab 95 76 bd
       -0.060811084 0.03918054 -5.1259995e-06 -0.06020133
000380 e6 5b 56 3d 00 a1 f1 3b 4a ad 00 3d ac 42 c2 3c
       0.052333735 0.007373929 0.03141526 0.023713432
000390 e0 0e 28 3d da 86 41 3d 1a 69 4e 3d 52 04 6c 3d
       0.04102981 0.047247745 0.0503932 0.057621308
0003a0 ae bc a3 bd 38 76 a9 bd 40 96 04 3c 60 b0 79 bd
       -0.07994972 -0.082745016 0.008092463 -0.06095922
0003b0 d2 54 37 3d 6c 06 d8 bc 2b 94 80 bd 96 bf 05 bd
       0.044758625 -0.02637025 -0.06278261 -0.032653414
0003c0 50 e7 f3 3b d8 d6 20 bc 65 2e a5 3d 80 56 cd bc
       0.007443346 -0.009816848 0.0806549 -0.02506566
0003d0 6c b2 b1 bc f6 d5 7e 3d 9a 96 5b 3d 11 67 a2 3d
       -0.021691523 0.062215768 0.05361042 0.079298146
0003e0 5b 09 21 bd db dd 34 bd 50 9d 9e bd c0 bc ed ba
       -0.039315563 -0.04415689 -0.07744849 -0.0018137917
0003f0 d3 79 8a bd eb c4 76 bd 00 e2 d2 3c 16 5e 56 3d
       -0.067615174 -0.06024639 0.02574253 0.05233582

arith.constant2 f4 [10, 64]
000000 f0 76 a6 3d a4 1b b8 3d 88 01 10 be 08 71 d8 bd
       0.08128154 0.08989647 -0.14063084 -0.10568434
000010 c0 ff 6d 3d e1 97 2f be aa a8 39 3e 70 6e 84 3c
       0.05810523 -0.17147781 0.18130746 0.016165942
000020 70 2f 46 3d 00 0a 89 bb 80 75 16 bc ba d7 e6 bd
       0.048385084 -0.0041821003 -0.009183288 -0.11271615
000030 be e2 4a 3e fe de 77 3e e0 3f 33 3e 00 d4 e0 bb
       0.19813058 0.24206159 0.17504835 -0.00686121
000040 2c 0d fd 3d 28 a9 47 3e b8 90 54 bd 5d 0e 83 3e
       0.12356028 0.19498122 -0.051895827 0.25596896
000050 64 17 a4 3d 4e df bd bd 1c cc 8c bd 93 fe 08 be
       0.08012274 -0.092711076 -0.06874868 -0.13378362
000060 58 ea 28 3e 5e bd 21 3e 34 ef e7 3d 75 aa 8b 3e
       0.16495645 0.15794894 0.11324921 0.27278486
000070 60 88 95 bd d4 34 20 3e 90 04 8c bc 60 6b 69 bd
       -0.07301402 0.15645152 -0.01709202 -0.056987166
000080 0a ed 04 be 5c c4 55 3e 60 3a bf bd 94 a6 29 3e
       -0.12981048 0.20875686 -0.09337306 0.16567451
000090 0e 2a b5 bd 2c 6f cd bd 20 87 b2 3d f0 18 10 be
       -0.08845912 -0.1003097 0.08717179 -0.14072013
0000a0 96 69 7c 3e c0 91 fc bc 45 6d 88 3e 00 94 9c 39
       0.24649653 -0.030831218 0.26645866 0.00029864907
0000b0 f2 5a 6c 3e a0 3e 9a 3c 12 71 7f 3e c0 fd 20 bc
       0.23081568 0.01882869 0.24945477 -0.009826124
0000c0 18 c9 39 3e 80 fb f6 bb 4f 2c 02 be 44 d8 67 be
       0.18143117 -0.0075373054 -0.12712215 -0.22641093
0000d0 50 38 0c 3d ce 12 15 be 22 95 15 be 15 96 7d be
       0.03423339 -0.14557955 -0.14607671 -0.24764283
0000e0 3c f7 81 3d 34 21 41 be 5c fd 54 bd e6 8b 6a 3e
       0.06345984 -0.18860322 -0.051999435 0.2290493
0000f0 56 91 b9 bd 2a cc 48 3e 37 13 66 be a0 6f 99 3d
       -0.09060924 0.19609132 -0.22468267 0.07491994
000100 ee dc 7b 3e d3 8f 40 be 4d 9e 51 be 1e 9d 46 be
       0.24595997 -0.18804865 -0.20470543 -0.19395873
000110 18 5f 1b 3d bf ea 62 be 0d 8c 8b be b5 3e 85 be
       0.037932485 -0.22159861 -0.27255288 -0.26024404
000120 e8 3c 5f be 60 d6 68 3d 12 79 03 3e 0e 65 7e 3e
       -0.21800578 0.05684507 0.12839153 0.24843237
000130 5b f7 8e 3e d4 0e 42 be 2e 4e 70 be 9c 5c 9d 3d
       0.27923092 -0.18950969 -0.23467323 0.076836795
000140 f2 1f 5e 3e dc 6f 68 be f0 e9 f4 3c d9 e0 82 be
       0.21691874 -0.22698921 0.029896706 -0.2556217
000150 ba f2 c4 bd 74 f1 04 3e 60 ee 8a be 40 f9 1e bc
       -0.09616609 0.12982732 -0.2713499 -0.0097029805
000160 68 d9 48 3d 44 07 4f be 1a ae 70 be 4a 00 96 bd
       0.04903546 -0.20217615 -0.23503914 -0.07324274
000170 4c 8e 59 be 96 54 38 be 10 72 71 be 7e 50 79 3e
       -0.21245688 -0.18001017 -0.23578668 0.24347112
000180 e8 c4 85 be 28 47 75 3d e2 a4 47 3e 00 4b d5 bc
       -0.2612679 0.059882313 0.19496492 -0.02603674
000190 2a 2d 18 be a4 a6 a9 3d 18 b4 4d 3e 9e 29 7b be
       -0.14860979 0.08283737 0.20088232 -0.24527594
0001a0 a0 0b 11 3d a0 d0 9f 3c e7 35 8c 3e 44 b1 7c bd
       0.035411477 0.01950866 0.27384874 -0.06169249
0001b0 76 99 41 3e 50 07 0a 3d f9 0a 0b be 86 72 09 3e
       0.18906197 0.03369838 -0.13578404 0.13422593
0001c0 d2 c6 da bd e0 79 50 bc e0 b9 6f bc 30 fd a1 3d
       -0.10682453 -0.01272437 -0.014631718 0.0790962
0001d0 f8 76 31 be 60 f6 51 3c ac bc 31 3e 18 a9 4c bd
       -0.17330539 0.012815088 0.17357129 -0.049965948
0001e0 8c e0 64 bd 52 db 6b 3e 92 96 30 3e e3 7f 16 be
       -0.055878207 0.23032883 0.17244938 -0.14697222
0001f0 80 39 06 be a6 87 b6 bd ed 85 89 3e a5 82 73 be
       -0.13107872 -0.08912592 0.2685999 -0.23780306
000200 8a 5d d4 bd 26 7c 60 3e 6e 81 5c 3e 68 c0 0e 3d
       -0.10369404 0.21922359 0.21533749 0.03485146
000210 4a cf 94 bd 0a 29 35 be 50 00 e9 bd 32 b1 05 be
       -0.072661 -0.17691436 -0.11377013 -0.13055876
000220 f4 ca ae 3d 38 f9 c3 bd d0 05 d6 3d 60 c9 93 3c
       0.08534804 -0.09569019 0.104503274 0.018040359
000230 14 53 c2 bd a0 12 4d 3e 94 da e3 3d 0c 15 6e bd
       -0.09488502 0.20026636 0.11125675 -0.05812554
000240 36 51 c9 bd 00 23 81 bc 40 70 69 bc 90 9c b6 3c
       -0.09829943 -0.01576376 -0.014247954 0.022291452
000250 a0 99 ae bc e3 f1 84 3e 24 2c 2c be 65 25 84 3e
       -0.021313488 0.25965795 -0.16813713 0.2580978
000260 c9 2e 70 be 5c a5 26 bd e0 38 1e 3e d0 fe ec bc
       -0.23455347 -0.040685043 0.15451384 -0.028930098
000270 d8 3c d8 3d 9a 09 b7 bd 63 f9 80 be c6 1e 75 3e
       0.1055848 -0.08937378 -0.25190267 0.2393752
000280 ef 49 81 3e be 58 30 3e 6d 69 84 3e 90 9c 46 3d
       0.2525172 0.17221352 0.25861683 0.048489153
000290 dc b7 c4 3d 26 41 a4 bd 9c ca ea 3d f0 66 65 bd
       0.09605381 -0.080202386 0.11464426 -0.056006372
0002a0 f2 a5 02 3e 12 bd 35 3e 70 5a d1 3c 38 6c d0 bd
       0.12758616 0.17747906 0.02555582 -0.10176891
0002b0 ff b4 6e be 42 53 b9 bd 6e 25 de bd f8 11 34 bd
       -0.23311232 -0.09049083 -0.10846983 -0.04396245
0002c0 88 6b 82 be fc 2c 5c 3e f4 e3 92 bd 98 eb 09 3d
       -0.25472665 0.21501535 -0.07172385 0.033671945
0002d0 8d e2 6d be 0b 2f 7e be dd cd 14 be b8 38 42 be
       -0.23230954 -0.24822633 -0.14531656 -0.18966949
0002e0 90 e5 2c be 46 1e 5f 3e ad db 1b be 28 d9 3f 3e
       -0.16884446 0.21788892 -0.15220518 0.18735182
0002f0 05 b5 8a 3e 56 8c 65 3e c0 1f e1 bb 5e 32 36 3e
       0.27091232 0.22416815 -0.00687024 0.17792651
000300 ee 59 36 be 34 ec 62 be a8 86 f9 3d 1a ad 47 be
       -0.17807743 -0.22160417 0.12183887 -0.19499627
000310 78 8f c3 bd 7d 39 55 be 74 70 33 bd 23 11 8a 3e
       -0.09548849 -0.20822711 -0.043808416 0.269662
000320 84 f6 18 be 46 d0 72 3e 20 8e 13 3e 06 d0 60 be
       -0.14937788 0.23712263 0.14409685 -0.21954355
000330 e2 4b 1b 3e aa 70 60 be 70 c1 a9 bc 00 d2 cb 3d
       0.15165666 -0.21917978 -0.020722121 0.09952164
000340 7d f6 8d be 84 e5 df bd fc 74 a0 3d 40 95 55 3c
       -0.27727118 -0.109324485 0.07834813 0.013036072
000350 ca dc 5e 3e 3a 0f 05 3e a0 87 47 be 94 a8 6b bd
       0.21763912 0.1299409 -0.1948533 -0.057533816
000360 60 16 e4 bd fc bf 34 be a8 67 3c bd e0 ac 5d be
       -0.1113708 -0.17651361 -0.04599729 -0.21647978
000370 64 db 85 3d dc 54 53 bd b8 80 a1 3d f1 3c 17 be
       0.06535986 -0.0515946 0.07885879 -0.14769341
000380 b2 eb 7d 3e 00 b9 12 bc f6 1d 73 3e b5 89 88 3e
       0.24796942 -0.00895524 0.23741898 0.26667562
000390 e6 ae 66 be f0 b2 e5 3d 00 b1 2b be ca 06 5f 3e
       -0.22527656 0.1121577 -0.16766739 0.21779934
0003a0 85 b0 18 be c0 ef ec bc c0 bb 1b 3c b2 5c 14 3e
       -0.14911087 -0.028922915 0.009505212 0.14488485
0003b0 b0 d0 b9 3d 86 bc 35 3e 20 8a 8b 3d 96 c9 cc bd
       0.09073007 0.17747697 0.06813455 -0.09999387
0003c0 00 27 4f 3d 9e 10 2e be b2 79 64 be fa 39 5a be
       0.050574303 -0.16998526 -0.22312048 -0.21311179
0003d0 ba a1 36 3e e8 0b 3b 3d 3d 62 32 be 30 23 04 be
       0.17835131 0.04566565 -0.17420287 -0.12904048
0003e0 88 8c 24 3d e2 a0 d7 bd 01 b5 8d be 6c 68 91 3d
       0.040173084 -0.10528733 -0.27677158 0.07099995
0003f0 96 1f f0 bd 90 61 69 bd 88 84 16 be d8 2c 2b 3e
       -0.117247745 -0.05697781 -0.14698994 0.16716325

arith.constant3 f4 [64, 1024]
000000 f2 3e 15 3d 36 05 69 bd 14 52 b3 bc ec cc 33 bd
       0.036436982 -0.056889735 -0.021889724 -0.0438966
000010 ce b8 95 3d 82 7c 95 bc 82 90 cf bc ca c3 be bc
       0.07310639 -0.018247847 -0.025337461 -0.023286719
000020 0c 0a 38 3d 10 57 ca 3c f0 fc 87 bd f0 02 ee 3b
       0.044931456 0.024699718 -0.06640041 0.007263534
000030 70 29 61 bc 68 08 cb 3c e4 ae 94 bd 54 d8 36 3d
       -0.01374279 0.024784282 -0.0725992 0.0446399
000040 6a 36 19 3d 7e 6f c0 bc e3 56 86 bd 10 01 94 3d
       0.03740541 -0.023490664 -0.06559541 0.07226765
000050 38 3f 21 3c 38 64 88 bd e8 90 f1 3c 38 db eb 3c
       0.009841733 -0.0665974 0.029488042 0.028791055
000060 c4 5b 97 3d 40 3e 44 bb 45 38 81 bd be bf 9e bc
       0.0739055 -0.002994433 -0.06309561 -0.01937854
000070 08 c3 6f 3d c0 a8 c0 ba c4 31 ab 3c c0 74 90 bd
       0.058535606 -0.0014698729 0.020897754 -0.07053518
000080 9a 58 b5 bc 00 2e 53 bd 80 a6 c2 bb 20 6f 75 3d
       -0.022136975 -0.05155754 -0.0059402585 0.05992043
000090 70 4b f2 3b 51 f1 12 bd 00 84 89 ba bc 1e 80 3c
       0.0073942468 -0.03587467 -0.001049161 0.015639655
0000a0 e8 51 44 bd c0 23 a1 ba f0 4b a6 bc 94 8f fc 3c
       -0.047929674 -0.001229398 -0.020299882 0.030830182
0000b0 15 77 0d bd d8 59 14 3c b9 05 8a bd d6 c4 81 bd
       -0.034537394 0.009054624 -0.06739373 -0.063363716
0000c0 21 48 8d bd 84 81 7d 3d e8 f4 ca 3c c0 81 8a 3d
       -0.06898523 0.061891094 0.024774984 0.06763029
0000d0 e0 da c6 bb 84 91 d4 3c 69 c7 38 bd 20 01 9f bc
       -0.0060685724 0.025948294 -0.045112047 -0.019409716
0000e0 08 9f 0c 3c 4c 1d 62 3d d0 39 7d bd e0 89 ab bc
       0.008582838 0.05520372 -0.061822712 -0.020939767
0000f0 44 dc 50 bc 6f fb 7b bd 72 2b dc bc 9e 36 29 bd
       -0.012747828 -0.061519083 -0.026876185 -0.041311853
000100 2e 52 3a bd 74 de 2c 3d 7a 59 95 3d c2 78 86 3d
       -0.04548853 0.042204335 0.07292457 0.065660015
000110 2d e9 94 bd e2 25 15 3d 2a 37 8c 3d 82 a9 41 bd
       -0.07271037 0.03641308 0.06846459 -0.047280796
000120 00 a2 34 3d a9 83 85 bd 5c aa 8d bd 00 19 64 bd
       0.044099808 -0.06519253 -0.06917259 -0.055687904
000130 c9 dd 8d bd dc 93 47 bd 20 4e 9f bb 4a 96 18 3d
       -0.06927068 -0.048724994 -0.004861608 0.0372527
000140 ea 9f 0f 3d 9c 90 ec 3c 4a 37 1d bd 9a d6 98 bc
       0.035064615 0.028877549 -0.038382806 -0.018657017
000150 e0 5f 32 bc 38 f5 01 bd a4 b6 cd 3c 28 5f ec 3c
       -0.010887116 -0.031728 0.025111504 0.028853968
000160 18 09 88 3c 80 23 92 3c 2c bf cc 3c 24 79 8e bc
       0.016605899 0.017839193 0.024993502 -0.017391749
000170 de 6c 52 bd 96 17 6f bd 7c fb 4f bc 7c 03 01 3d
       -0.051373355 -0.058372103 -0.012694236 0.031497464
000180 87 98 24 bd e6 c6 81 3d e4 b9 7e bd f2 70 8b 3d
       -0.040184524 0.06336765 -0.062188998 0.06808652
000190 71 58 0a bd 80 8e 50 3d ee dc 3d bd a0 8e af bb
       -0.03377575 0.05091715 -0.046353273 -0.0053575784
0001a0 2a fe bc bc b8 aa 83 3d eb d5 01 bd a0 90 27 bc
       -0.023070414 0.064290464 -0.03169815 -0.010227352
0001b0 96 36 8d 3d b6 93 8c bd ba a9 42 bd 60 0c 84 bb
       0.06895177 -0.06864111 -0.047525145 -0.0040297955
0001c0 10 63 e7 3b 60 54 6a 3d 58 f0 15 bc 40 ef 94 bb
       0.0070613697 0.057209373 -0.009151541 -0.0045451224
0001d0 40 89 4d 3b 98 a8 96 3d ea 35 fc bc fa 44 61 bd
       0.0031362325 0.073563755 -0.030787427 -0.05499742
0001e0 74 04 7a 3d 20 fd 36 3b bc da 94 3c 9e 90 b9 bc
       0.061039403 0.002792187 0.018170707 -0.022651967
0001f0 10 f5 c5 bb 92 69 11 3d 38 65 03 bd 30 72 86 bd
       -0.0060411766 0.03550107 -0.03207895 -0.06564748
000200 c0 cf 26 bc fa d7 32 3d 4a d7 01 3d 90 6e 25 3c
       -0.010181367 0.043663003 0.031699456 0.010097161
000210 a4 22 a8 3c b4 55 e8 3c 76 71 4b bd b6 0f 1d bd
       0.02052433 0.028361179 -0.04966875 -0.03834506
000220 f2 9c 0f 3d d8 38 fe 3c 80 5d 98 3b 10 37 a2 bb
       0.035061784 0.031032965 0.004649818 -0.0049504116
000230 9a 9e 86 3d 11 1b 3e bd 60 86 c8 bc d2 c7 93 3d
       0.065732196 -0.04641253 -0.024478137 0.07215847
000240 64 c7 cf 3c 50 6f c9 3b e3 07 1f bd 60 16 3c 3d
       0.025363632 0.0061473027 -0.03882588 0.045919776
000250 ba e4 d7 bc b0 2d f9 bb 41 a5 2c bd cc be 5b 3d
       -0.026354183 -0.0076043233 -0.042149786 0.053648755
000260 48 b1 b3 bc 31 14 30 bd 3c 67 83 bd 66 c1 4d 3d
       -0.02193512 -0.042988006 -0.06416175 0.050233267
000270 58 f4 93 3c 94 05 97 3d f7 51 48 bd 8c fd 4d bd
       0.018060848 0.07374111 -0.048906293 -0.05029063
000280 9f c6 11 bd e0 9b 8d 3b 74 73 00 3d b8 d6 d4 bc
       -0.03558981 0.0043215603 0.031360105 -0.025981292
000290 20 29 69 3c 12 97 c2 bc d0 b3 8b 3b a6 b0 3e 3d
       0.014230996 -0.023753677 0.0042633787 0.046555184
0002a0 c8 99 a7 bc 79 70 37 bd ba 47 5f bd 4c 6b 6b bd
       -0.02045907 -0.044784997 -0.054511763 -0.057475373
0002b0 aa db 13 3d 80 2a 7b bd 1c 2a a1 3c b4 e9 68 3d
       0.03609816 -0.061319828 0.0196734 0.0568635
0002c0 98 ea 47 bd c6 77 31 3d 70 40 43 bd e8 bf f6 3c
       -0.04880771 0.043327115 -0.047668874 0.030120805
0002d0 7c 47 46 3d 7e bc 44 3d 7a 58 cf bc b6 ef 94 bc
       0.048408017 0.048031323 -0.025310744 -0.01818071
0002e0 c4 8c 8d 3c 40 77 e6 bb 64 ea 27 3d cc 2d f5 3c
       0.017279036 -0.0070332587 0.040995017 0.029929064
0002f0 88 f8 ee 3c c7 cc 6c bd a8 e0 54 3d e8 cf 5d 3d
       0.029171243 -0.05781248 0.05197206 0.054153353
000300 40 2c 10 3d 7a 11 02 3d 48 9e 54 3d ad fa 16 bd
       0.03519845 0.03175495 0.05190876 -0.036860157
000310 74 dd 87 bd 71 30 95 bd 34 3c 7e bd 44 69 18 3d
       -0.06634036 -0.0728463 -0.062069133 0.037209764
000320 c6 32 49 bd c0 db 20 bd d8 c0 04 bc 52 72 85 3d
       -0.049120687 -0.03927207 -0.008102618 0.065159455
000330 e2 bc 1e bd d0 e7 4e 3c ed 68 2f bd 78 ac fc 3c
       -0.03875435 0.012628511 -0.042824674 0.030843958
000340 a8 d8 c3 3c f2 07 96 bd 2b cc 97 bd 6b cc 2a bd
       0.02390702 -0.07325734 -0.07411989 -0.041698854
000350 34 61 8a 3d 80 ac f4 3a d8 80 4d 3c 48 f9 db bc
       0.06756821 0.0018667132 0.012542926 -0.026852265
000360 6e c3 85 3d e0 29 48 3b 52 9b 38 bd de 6a 22 3d
       0.06531416 0.0030542538 -0.04507 0.039652698
000370 c2 e0 21 3d 28 91 1c 3c 56 5f 07 3d 48 d4 16 3d
       0.039520986 0.009556092 0.033049904 0.03682354
000380 24 1b a5 3c b0 86 5e 3d 7c 2b 32 bd 30 d0 94 bc
       0.020154543 0.054327667 -0.0434985 -0.018165678
000390 00 68 80 b9 97 df 84 bd 48 3c 95 3c 50 68 45 3d
       -0.00024491549 -0.06487959 0.01821722 0.048195183
0003a0 36 7a fd bc be 28 89 3d 40 d7 98 3a c0 87 07 3c
       -0.030942064 0.06697224 0.0011660829 0.008272111
0003b0 78 f2 6f 3c e0 0e fe 3b 46 8a 9e bc e8 07 5c bc
       0.014645211 0.007753238 -0.019353043 -0.013429619
0003c0 e0 63 6e 3d 53 9a 81 bd 87 e8 3e bd 41 71 8a bd
       0.058200717 -0.06328263 -0.046608474 -0.06759883
0003d0 42 a8 4d 3d f4 9d 2e 3d c3 45 88 bd 67 17 93 bd
       0.05020929 0.042631105 -0.06653931 -0.07182198
0003e0 04 56 cc bc c1 79 8b bd 3e 75 52 bd 62 e3 10 3d
       -0.02494336 -0.06810332 -0.051381342 0.0353731
0003f0 80 f7 02 bd 59 56 23 bd 00 ab 39 3d 76 bf d8 bc
       -0.031974316 -0.03987727 0.045329094 -0.026458483

arith.constant4 f4 [32]
000000 00 00 00 00 00 00 00 00 00 00 00 00 00 00 00 00
       0.0 0.0 0.0 0.0
000010 00 00 00 00 00 00 00 00 00 00 00 00 00 00 00 00
       0.0 0.0 0.0 0.0
000020 00 00 00 00 00 00 00 00 00 00 00 00 00 00 00 00
       0.0 0.0 0.0 0.0
000030 00 00 00 00 00 00 00 00 00 00 00 00 00 00 00 00
       0.0 0.0 0.0 0.0
000040 00 00 00 00 00 00 00 00 00 00 00 00 00 00 00 00
       0.0 0.0 0.0 0.0
000050 00 00 00 00 00 00 00 00 00 00 00 00 00 00 00 00
       0.0 0.0 0.0 0.0
000060 00 00 00 00 00 00 00 00 00 00 00 00 00 00 00 00
       0.0 0.0 0.0 0.0
000070 00 00 00 00 00 00 00 00 00 00 00 00 00 00 00 00
       0.0 0.0 0.0 0.0

arith.constant6 f4 [64]
000000 00 00 00 00 00 00 00 00 00 00 00 00 00 00 00 00
       0.0 0.0 0.0 0.0
000010 00 00 00 00 00 00 00 00 00 00 00 00 00 00 00 00
       0.0 0.0 0.0 0.0
000020 00 00 00 00 00 00 00 00 00 00 00 00 00 00 00 00
       0.0 0.0 0.0 0.0
000030 00 00 00 00 00 00 00 00 00 00 00 00 00 00 00 00
       0.0 0.0 0.0 0.0
000040 00 00 00 00 00 00 00 00 00 00 00 00 00 00 00 00
       0.0 0.0 0.0 0.0
000050 00 00 00 00 00 00 00 00 00 00 00 00 00 00 00 00
       0.0 0.0 0.0 0.0
000060 00 00 00 00 00 00 00 00 00 00 00 00 00 00 00 00
       0.0 0.0 0.0 0.0
000070 00 00 00 00 00 00 00 00 00 00 00 00 00 00 00 00
       0.0 0.0 0.0 0.0
000080 00 00 00 00 00 00 00 00 00 00 00 00 00 00 00 00
       0.0 0.0 0.0 0.0
000090 00 00 00 00 00 00 00 00 00 00 00 00 00 00 00 00
       0.0 0.0 0.0 0.0
0000a0 00 00 00 00 00 00 00 00 00 00 00 00 00 00 00 00
       0.0 0.0 0.0 0.0
0000b0 00 00 00 00 00 00 00 00 00 00 00 00 00 00 00 00
       0.0 0.0 0.0 0.0
0000c0 00 00 00 00 00 00 00 00 00 00 00 00 00 00 00 00
       0.0 0.0 0.0 0.0
0000d0 00 00 00 00 00 00 00 00 00 00 00 00 00 00 00 00
       0.0 0.0 0.0 0.0
0000e0 00 00 00 00 00 00 00 00 00 00 00 00 00 00 00 00
       0.0 0.0 0.0 0.0
0000f0 00 00 00 00 00 00 00 00 00 00 00 00 00 00 00 00
       0.0 0.0 0.0 0.0

sequential_1/conv2d_1/convolution f4 [32, 3, 3, 3]
000000 ec 56 0c 3d 78 13 f2 bc cf dd 00 3e 7c e7 6a 3d
       0.034262583 -0.029550299 0.12584613 0.057349667
000010 f4 4e 96 3d 30 79 71 bc 0e 6b 9b 3d 1b ec f1 bd
       0.07339278 -0.014738366 0.075887784 -0.11812612
000020 f2 ae e1 3d c2 54 72 bd b4 c5 d3 bd f8 30 9d 3d
       0.11019696 -0.059162863 -0.10340443 0.07675356
000030 8a f9 d0 bd 6c e0 42 3d e2 bb 84 3d 4f a5 02 3e
       -0.10203846 0.047577307 0.06481148 0.12758373
000040 6a 1a ed 3d 9e 9e 03 be e0 b9 a2 3b 30 08 2c 3d
       0.11577304 -0.12853476 0.0049660057 0.041999996
000050 eb c8 e4 bd e0 16 ed bb 5c 91 bd bd dc d0 7e 3d
       -0.111711346 -0.007235393 -0.09256241 0.062210903
000060 02 de db 3d ec 35 8f bd 22 da ea 3d 06 8f f8 3d
       0.10735704 -0.06992707 0.11467387 0.121366546
000070 a1 5b fb bd e9 29 e3 bd a6 40 98 3d e8 a2 ce 3d
       -0.12273336 -0.11091978 0.07434206 0.10089666
000080 40 77 7a 3c 10 ec 27 3c 4a 53 be 3d b0 5c 27 3d
       0.0152872205 0.010249153 0.0929323 0.040859878
000090 70 f6 96 bc 10 44 61 3c c0 f7 ce bd 7c ef 59 3d
       -0.018428057 0.0137491375 -0.10105848 0.053206906
0000a0 77 2c 8a bd e2 0a fc 3d 38 f0 74 bd 56 08 f6 3d
       -0.06746762 0.12306763 -0.059799403 0.12013309
0000b0 22 a6 fc 3d 56 09 f4 3d 00 fb 1a 3a 96 62 a2 3d
       0.12336375 0.11915843 0.00059120357 0.0792896
0000c0 e0 fb 4b 3d 60 b2 60 3c fc 4f a9 bd dd c1 8b bd
       0.049800754 0.013714403 -0.08267209 -0.06824086
0000d0 b9 45 0a be 4c e4 af 3d 62 3d c2 3d 72 33 a4 3d
       -0.1350316 0.08588466 0.09484364 0.08017625
0000e0 dc 84 ba 3d 30 19 8c 3c d0 f1 be bd e8 ed 8a bc
       0.09107372 0.017101854 -0.09323466 -0.016959146
0000f0 48 06 81 bd 67 b7 93 bd 7c ca aa bd 5a d4 ab 3d
       -0.06300026 -0.072127156 -0.08339402 0.08390112
000100 80 f6 3f bb a4 27 c9 3d c0 1a c0 bb 48 65 65 bc
       -0.0029291213 0.09822014 -0.005862564 -0.014001198
000110 46 95 f4 3d e8 1f d2 bd e5 90 02 be 8a 31 ff bd
       0.11942534 -0.10259992 -0.12750585 -0.12460621
000120 b4 21 b2 bd 32 6f c4 3d aa b3 9d bd 64 e3 d0 3d
       -0.086978346 0.09591521 -0.07700284 0.10199621
000130 ba f4 e2 bd 60 42 10 3d 18 09 e1 3c 68 d9 73 3d
       -0.11081834 0.03521955 0.027470157 0.059533507
000140 b4 c2 13 3d c4 e4 8f 3d 82 78 98 3d 30 fd 21 3c
       0.036074355 0.070260555 0.0744486 0.009887025
000150 a6 e2 8f bd 2c 88 f6 bd c0 08 8d bb 9c 1d cc bd
       -0.07025652 -0.120376915 -0.0043040216 -0.09966585
000160 d1 6f 09 3e 54 69 e2 3d c2 db ee 3d e0 0c 6a 3c
       0.13421561 0.11055246 0.11663009 0.014285296
000170 57 d7 0c 3e 9c 01 1e 3d 22 42 ef 3d a0 eb a4 3d
       0.1375402 0.038575754 0.11682536 0.080527544
000180 f8 1a df 3d 36 61 e0 bd 48 83 f9 3c ff 90 0c 3e
       0.10893816 -0.109560415 0.030458108 0.13727187
000190 b0 d2 77 bc 02 0a 07 be ce 04 97 3d 8a ec ea 3d
       -0.015125915 -0.13187411 0.07373963 0.114708975
0001a0 d9 8f 80 bd e1 26 06 be 58 fb 08 be 68 38 28 3d
       -0.06277437 -0.13100769 -0.1337713 0.04106942
0001b0 70 4e 1b 3d 14 27 c1 3d 18 78 ea bd e0 60 38 bc
       0.0379166 0.09431282 -0.11448687 -0.011253566
0001c0 6e f1 16 bd ea c3 0b be a0 6c f7 3b 68 a8 fc 3c
       -0.03685134 -0.13648954 0.007550791 0.030842021
0001d0 bc 2f bc bd 26 06 b9 bd de ce f1 bd 8a 33 51 bd
       -0.09188792 -0.09034376 -0.11807035 -0.051074542
0001e0 64 95 ca bc 22 81 80 bd e2 63 6c bd 48 72 d1 3d
       -0.024729438 -0.0627463 -0.057712443 0.102268755
0001f0 0e a7 f2 3d 92 73 87 3d 9f a4 dd bd 4c 90 18 bd
       0.118482694 0.0661384 -0.108224146 -0.037246987
000200 c4 11 59 3d 8d c3 00 3e c0 87 47 bc 02 6a ac bd
       0.05299546 0.12574597 -0.012178361 -0.08418657
000210 c0 c5 0c be 42 d3 8f 3d 8e 94 82 3d cc 39 41 bd
       -0.1374731 0.07022716 0.06375991 -0.04717426
000220 d6 4d d5 bd 18 c6 cb 3d 20 ad 85 3b da 9e f8 3d
       -0.10415237 0.09949893 0.004079476 0.121396735
000230 16 a6 cc 3d f4 8e 9d bc a4 4b 72 3d de 5f c3 bd
       0.09992616 -0.019233204 0.059154168 -0.095397696
000240 d8 30 19 3d e4 e3 f3 bd 38 01 a7 3c 78 1f b3 3c
       0.037400097 -0.11908701 0.020386323 0.021865591
000250 14 7a 05 be 52 cf 91 bd ac 7f d1 3d 80 ed fd bb
       -0.1303485 -0.07119621 0.102294296 -0.0077492595
000260 f5 b5 c1 bd 08 52 b1 3c 5a 7a 80 bd 24 58 c2 3d
       -0.09458534 0.02164556 -0.06273337 0.09489468
000270 b0 fa 15 bc fa 50 21 bd 14 17 ad 3d c1 59 f3 bd
       -0.009154007 -0.039383866 0.084516674 -0.118823536
000280 47 1d b6 bd 47 a7 9d bd d4 4e 73 3d a0 75 44 3c
       -0.08892303 -0.07697921 0.05940135 0.011990935
000290 c8 90 3a 3d a4 10 8a bd 9c 15 bd bc 0c 3c d1 3d
       0.04554823 -0.06741455 -0.023081593 0.10216531
0002a0 27 f9 0b 3e 4a 74 bd bd 70 c3 cf bd 58 fe 04 3d
       0.13669263 -0.09250696 -0.101446986 0.032469124
0002b0 60 e7 e2 3d 18 16 22 3d f8 ab 2e 3d 14 ba 0a 3d
       0.110792875 0.03957185 0.04264447 0.033868864
0002c0 50 d4 31 3d 00 41 c4 3a bc 41 b5 3d ce 61 03 be
       0.043415368 0.0014972985 0.088504285 -0.12830278
0002d0 68 ca 1b bd 1c 0c a5 3d 60 23 c4 bb 46 39 e1 3d
       -0.038034827 0.0805895 -0.0059856623 0.10997252
0002e0 98 68 a6 3d 64 83 e4 3d f0 c1 a0 bd 60 95 cb bb
       0.081254184 0.11157873 -0.07849491 -0.0062128752
0002f0 73 30 03 3e d9 28 9a bd 48 2d fe bd 50 0e b8 bd
       0.1281145 -0.07527322 -0.124109805 -0.08987105
000300 1a 13 d8 bd 32 26 eb bd 00 e5 fd bd 08 bd 91 3d
       -0.10550518 -0.114818946 -0.12397194 0.07116133
000310 97 f9 04 3e 14 71 6b 3d 36 91 ba bd cc 6f e8 bc
       0.12985836 0.057480887 -0.09109728 -0.028373621
000320 1e ea fa 3d bc b7 a7 bc a5 49 9a bd 70 e6 51 bc
       0.122516856 -0.020473354 -0.07533578 -0.012811288
000330 06 ab af 3d 9c 0f aa bc 90 84 76 bd 40 9c 44 3c
       0.08577542 -0.020759396 -0.060185015 0.0120001435
000340 f0 1b 75 3d ee 1d 36 bd 4e 16 f2 3d b2 88 95 3d
       0.059841096 -0.044462137 0.118206605 0.07301463
000350 c8 b2 1e bd 80 1c d2 ba fb 98 05 3e f0 d7 3b bc
       -0.038744718 -0.0016030222 0.13046639 -0.011465058
000360 c0 95 9d bd a6 de f1 3d c0 11 12 3d 62 d3 05 be
       -0.07694578 0.11810045 0.03566146 -0.13068917
000370 34 a9 08 be c6 80 e8 bd bc 97 80 3d 62 13 a2 bd
       -0.13345796 -0.113526866 0.06278941 -0.07913853
000380 c6 04 bf 3d 04 b9 63 3d 2f 88 82 bd 50 39 8f 3c
       0.09327082 0.055596367 -0.06373631 0.017483383
000390 7c 9b 1d 3d 12 35 c1 3d 5a 40 8c bd b0 e2 15 3c
       0.03847836 0.094339505 -0.068482116 0.009148285
0003a0 6c f5 1f 3d 2f d4 09 3e 10 eb 8e bc 18 ed b1 bc
       0.039052412 0.13459848 -0.01744607 -0.0217195
0003b0 a0 9c e3 3b 1e 5f fb 3d 2c 38 78 3d 98 65 99 bd
       0.0069461614 0.122740015 0.060600445 -0.074900806
0003c0 4c e2 69 3d ee 1b cf bd 50 9d 8a 3d c4 54 a1 bd
       0.05710058 -0.10112749 0.06768286 -0.07877496
0003d0 c4 92 b5 3d 0f d2 06 be b2 0d b2 bd a0 3c 56 bc
       0.08865884 -0.13166068 -0.086940184 -0.013075978
0003e0 90 4e 4a 3d 56 6f b3 3d c2 db dc 3d af cc e8 bd
       0.04939133 0.0876147 0.10784103 -0.11367165
0003f0 92 ca df 3d 76 7e f9 3d e9 35 ec bd 2c c4 17 3d
       0.10927309 0.12182324 -0.1153372 0.03705232
