cifar10_model_quant.tflite (tflite, 133616 bytes, 7 tensors)

arith.constant f4 [32, 3, 3, 3]
000000 ec 56 0c 3d 78 13 f2 bc cf dd 00 3e 7c e7 6a 3d
       0.034262583 -0.029550299 0.12584613 0.057349667
000010 f4 4e 96 3d 30 79 71 bc 0e 6b 9b 3d 1b ec f1 bd
       0.07339278 -0.014738366 0.075887784 -0.11812612
000020 f2 ae e1 3d c2 54 72 bd b4 c5 d3 bd f8 30 9d 3d
       0.11019696 -0.059162863 -0.10340443 0.07675356
000030 8a f9 d0 bd 6c e0 42 3d e2 bb 84 3d 4f a5 02 3e
       -0.10203846 0.047577307 0.06481148 0.12758373
000040 6a 1a ed 3d 9e 9e 03 be e0 b9 a2 3b 30 08 2c 3d
       0.11577304 -0.12853476 0.0049660057 0.041999996
000050 eb c8 e4 bd e0 16 ed bb 5c 91 bd bd dc d0 7e 3d
       -0.111711346 -0.007235393 -0.09256241 0.062210903
000060 02 de db 3d ec 35 8f bd 22 da ea 3d 06 8f f8 3d
       0.10735704 -0.06992707 0.11467387 0.121366546
000070 a1 5b fb bd e9 29 e3 bd a6 40 98 3d e8 a2 ce 3d
       -0.12273336 -0.11091978 0.07434206 0.10089666
000080 40 77 7a 3c 10 ec 27 3c 4a 53 be 3d b0 5c 27 3d
       0.0152872205 0.010249153 0.0929323 0.040859878
000090 70 f6 96 bc 10 44 61 3c c0 f7 ce bd 7c ef 59 3d
       -0.018428057 0.0137491375 -0.10105848 0.053206906
0000a0 77 2c 8a bd e2 0a fc 3d 38 f0 74 bd 56 08 f6 3d
       -0.06746762 0.12306763 -0.059799403 0.12013309
0000b0 22 a6 fc 3d 56 09 f4 3d 00 fb 1a 3a 96 62 a2 3d
       0.12336375 0.11915843 0.00059120357 0.0792896
0000c0 e0 fb 4b 3d 60 b2 60 3c fc 4f a9 bd dd c1 8b bd
       0.049800754 0.013714403 -0.08267209 -0.06824086
0000d0 b9 45 0a be 4c e4 af 3d 62 3d c2 3d 72 33 a4 3d
       -0.1350316 0.08588466 0.09484364 0.08017625
0000e0 dc 84 ba 3d 30 19 8c 3c d0 f1 be bd e8 ed 8a bc
       0.09107372 0.017101854 -0.09323466 -0.016959146
0000f0 48 06 81 bd 67 b7 93 bd 7c ca aa bd 5a d4 ab 3d
       -0.06300026 -0.072127156 -0.08339402 0.08390112
000100 80 f6 3f bb a4 27 c9 3d c0 1a c0 bb 48 65 65 bc
       -0.0029291213 0.09822014 -0.005862564 -0.014001198
000110 46 95 f4 3d e8 1f d2 bd e5 90 02 be 8a 31 ff bd
       0.11942534 -0.10259992 -0.12750585 -0.12460621
000120 b4 21 b2 bd 32 6f c4 3d aa b3 9d bd 64 e3 d0 3d
       -0.086978346 0.09591521 -0.07700284 0.10199621
000130 ba f4 e2 bd 60 42 10 3d 18 09 e1 3c 68 d9 73 3d
       -0.11081834 0.03521955 0.027470157 0.059533507
000140 b4 c2 13 3d c4 e4 8f 3d 82 78 98 3d 30 fd 21 3c
       0.036074355 0.070260555 0.0744486 0.009887025
000150 a6 e2 8f bd 2c 88 f6 bd c0 08 8d bb 9c 1d cc bd
       -0.07025652 -0.120376915 -0.0043040216 -0.09966585
000160 d1 6f 09 3e 54 69 e2 3d c2 db ee 3d e0 0c 6a 3c
       0.13421561 0.11055246 0.11663009 0.014285296
000170 57 d7 0c 3e 9c 01 1e 3d 22 42 ef 3d a0 eb a4 3d
       0.1375402 0.038575754 0.11682536 0.080527544
000180 f8 1a df 3d 36 61 e0 bd 48 83 f9 3c ff 90 0c 3e
       0.10893816 -0.109560415 0.030458108 0.13727187
000190 b0 d2 77 bc 02 0a 07 be ce 04 97 3d 8a ec ea 3d
       -0.015125915 -0.13187411 0.07373963 0.114708975
0001a0 d9 8f 80 bd e1 26 06 be 58 fb 08 be 68 38 28 3d
       -0.06277437 -0.13100769 -0.1337713 0.04106942
0001b0 70 4e 1b 3d 14 27 c1 3d 18 78 ea bd e0 60 38 bc
       0.0379166 0.09431282 -0.11448687 -0.011253566
0001c0 6e f1 16 bd ea c3 0b be a0 6c f7 3b 68 a8 fc 3c
       -0.03685134 -0.13648954 0.007550791 0.030842021
0001d0 bc 2f bc bd 26 06 b9 bd de ce f1 bd 8a 33 51 bd
       -0.09188792 -0.09034376 -0.11807035 -0.051074542
0001e0 64 95 ca bc 22 81 80 bd e2 63 6c bd 48 72 d1 3d
       -0.024729438 -0.0627463 -0.057712443 0.102268755
0001f0 0e a7 f2 3d 92 73 87 3d 9f a4 dd bd 4c 90 18 bd
       0.118482694 0.0661384 -0.108224146 -0.037246987
000200 c4 11 59 3d 8d c3 00 3e c0 87 47 bc 02 6a ac bd
       0.05299546 0.12574597 -0.012178361 -0.08418657
000210 c0 c5 0c be 42 d3 8f 3d 8e 94 82 3d cc 39 41 bd
       -0.1374731 0.07022716 0.06375991 -0.04717426
000220 d6 4d d5 bd 18 c6 cb 3d 20 ad 85 3b da 9e f8 3d
       -0.10415237 0.09949893 0.004079476 0.121396735
000230 16 a6 cc 3d f4 8e 9d bc a4 4b 72 3d de 5f c3 bd
       0.09992616 -0.019233204 0.059154168 -0.095397696
000240 d8 30 19 3d e4 e3 f3 bd 38 01 a7 3c 78 1f b3 3c
       0.037400097 -0.11908701 0.020386323 0.021865591
000250 14 7a 05 be 52 cf 91 bd ac 7f d1 3d 80 ed fd bb
       -0.1303485 -0.07119621 0.102294296 -0.0077492595
000260 f5 b5 c1 bd 08 52 b1 3c 5a 7a 80 bd 24 58 c2 3d
       -0.09458534 0.02164556 -0.06273337 0.09489468
000270 b0 fa 15 bc fa 50 21 bd 14 17 ad 3d c1 59 f3 bd
       -0.009154007 -0.039383866 0.084516674 -0.118823536
000280 47 1d b6 bd 47 a7 9d bd d4 4e 73 3d a0 75 44 3c
       -0.08892303 -0.07697921 0.05940135 0.011990935
000290 c8 90 3a 3d a4 10 8a bd 9c 15 bd bc 0c 3c d1 3d
       0.04554823 -0.06741455 -0.023081593 0.10216531
0002a0 27 f9 0b 3e 4a 74 bd bd 70 c3 cf bd 58 fe 04 3d
       0.13669263 -0.09250696 -0.101446986 0.032469124
0002b0 60 e7 e2 3d 18 16 22 3d f8 ab 2e 3d 14 ba 0a 3d
       0.110792875 0.03957185 0.04264447 0.033868864
0002c0 50 d4 31 3d 00 41 c4 3a bc 41 b5 3d ce 61 03 be
       0.043415368 0.0014972985 0.088504285 -0.12830278
0002d0 68 ca 1b bd 1c 0c a5 3d 60 23 c4 bb 46 39 e1 3d
       -0.038034827 0.0805895 -0.0059856623 0.10997252
0002e0 98 68 a6 3d 64 83 e4 3d f0 c1 a0 bd 60 95 cb bb
       0.081254184 0.11157873 -0.07849491 -0.0062128752
0002f0 73 30 03 3e d9 28 9a bd 48 2d fe bd 50 0e b8 bd
       0.1281145 -0.07527322 -0.124109805 -0.08987105
000300 1a 13 d8 bd 32 26 eb bd 00 e5 fd bd 08 bd 91 3d
       -0.10550518 -0.114818946 -0.12397194 0.07116133
000310 97 f9 04 3e 14 71 6b 3d 36 91 ba bd cc 6f e8 bc
       0.12985836 0.057480887 -0.09109728 -0.028373621
000320 1e ea fa 3d bc b7 a7 bc a5 49 9a bd 70 e6 51 bc
       0.122516856 -0.020473354 -0.07533578 -0.012811288
000330 06 ab af 3d 9c 0f aa bc 90 84 76 bd 40 9c 44 3c
       0.08577542 -0.020759396 -0.060185015 0.0120001435
000340 f0 1b 75 3d ee 1d 36 bd 4e 16 f2 3d b2 88 95 3d
       0.059841096 -0.044462137 0.118206605 0.07301463
000350 c8 b2 1e bd 80 1c d2 ba fb 98 05 3e f0 d7 3b bc
       -0.038744718 -0.0016030222 0.13046639 -0.011465058
000360 c0 95 9d bd a6 de f1 3d c0 11 12 3d 62 d3 05 be
       -0.07694578 0.11810045 0.03566146 -0.13068917
000370 34 a9 08 be c6 80 e8 bd bc 97 80 3d 62 13 a2 bd
       -0.13345796 -0.113526866 0.06278941 -0.07913853
000380 c6 04 bf 3d 04 b9 63 3d 2f 88 82 bd 50 39 8f 3c
       0.09327082 0.055596367 -0.06373631 0.017483383
000390 7c 9b 1d 3d 12 35 c1 3d 5a 40 8c bd b0 e2 15 3c
       0.03847836 0.094339505 -0.068482116 0.009148285
0003a0 6c f5 1f 3d 2f d4 09 3e 10 eb 8e bc 18 ed b1 bc
       0.039052412 0.13459848 -0.01744607 -0.0217195
0003b0 a0 9c e3 3b 1e 5f fb 3d 2c 38 78 3d 98 65 99 bd
       0.0069461614 0.122740015 0.060600445 -0.074900806
0003c0 4c e2 69 3d ee 1b cf bd 50 9d 8a 3d c4 54 a1 bd
       0.05710058 -0.10112749 0.06768286 -0.07877496
0003d0 c4 92 b5 3d 0f d2 06 be b2 0d b2 bd a0 3c 56 bc
       0.08865884 -0.13166068 -0.086940184 -0.013075978
0003e0 90 4e 4a 3d 56 6f b3 3d c2 db dc 3d af cc e8 bd
       0.04939133 0.0876147 0.10784103 -0.11367165
0003f0 92 ca df 3d 76 7e f9 3d e9 35 ec bd 2c c4 17 3d
       0.10927309 0.12182324 -0.1153372 0.03705232

arith.constant1 f4 [64]
000000 00 00 00 00 00 00 00 00 00 00 00 00 00 00 00 00
       0.0 0.0 0.0 0.0
000010 00 00 00 00 00 00 00 00 00 00 00 00 00 00 00 00
       0.0 0.0 0.0 0.0
000020 00 00 00 00 00 00 00 00 00 00 00 00 00 00 00 00
       0.0 0.0 0.0 0.0
000030 00 00 00 00 00 00 00 00 00 00 00 00 00 00 00 00
       0.0 0.0 0.0 0.0
000040 00 00 00 00 00 00 00 00 00 00 00 00 00 00 00 00
       0.0 0.0 0.0 0.0
000050 00 00 00 00 00 00 00 00 00 00 00 00 00 00 00 00
       0.0 0.0 0.0 0.0
000060 00 00 00 00 00 00 00 00 00 00 00 00 00 00 00 00
       0.0 0.0 0.0 0.0
000070 00 00 00 00 00 00 00 00 00 00 00 00 00 00 00 00
       0.0 0.0 0.0 0.0
000080 00 00 00 00 00 00 00 00 00 00 00 00 00 00 00 00
       0.0 0.0 0.0 0.0
000090 00 00 00 00 00 00 00 00 00 00 00 00 00 00 00 00
       0.0 0.0 0.0 0.0
0000a0 00 00 00 00 00 00 00 00 00 00 00 00 00 00 00 00
       0.0 0.0 0.0 0.0
0000b0 00 00 00 00 00 00 00 00 00 00 00 00 00 00 00 00
       0.0 0.0 0.0 0.0
0000c0 00 00 00 00 00 00 00 00 00 00 00 00 00 00 00 00
       0.0 0.0 0.0 0.0
0000d0 00 00 00 00 00 00 00 00 00 00 00 00 00 00 00 00
       0.0 0.0 0.0 0.0
0000e0 00 00 00 00 00 00 00 00 00 00 00 00 00 00 00 00
       0.0 0.0 0.0 0.0
0000f0 00 00 00 00 00 00 00 00 00 00 00 00 00 00 00 00
       0.0 0.0 0.0 0.0

arith.constant5 f4 [32]
000000 00 00 00 00 00 00 00 00 00 00 00 00 00 00 00 00
       0.0 0.0 0.0 0.0
000010 00 00 00 00 00 00 00 00 00 00 00 00 00 00 00 00
       0.0 0.0 0.0 0.0
000020 00 00 00 00 00 00 00 00 00 00 00 00 00 00 00 00
       0.0 0.0 0.0 0.0
000030 00 00 00 00 00 00 00 00 00 00 00 00 00 00 00 00
       0.0 0.0 0.0 0.0
000040 00 00 00 00 00 00 00 00 00 00 00 00 00 00 00 00
       0.0 0.0 0.0 0.0
000050 00 00 00 00 00 00 00 00 00 00 00 00 00 00 00 00
       0.0 0.0 0.0 0.0
000060 00 00 00 00 00 00 00 00 00 00 00 00 00 00 00 00
       0.0 0.0 0.0 0.0
000070 00 00 00 00 00 00 00 00 00 00 00 00 00 00 00 00
       0.0 0.0 0.0 0.0

arith.constant6 f4 [10, 64]
000000 f0 76 a6 3d a4 1b b8 3d 88 01 10 be 08 71 d8 bd
       0.08128154 0.08989647 -0.14063084 -0.10568434
000010 c0 ff 6d 3d e1 97 2f be aa a8 39 3e 70 6e 84 3c
       0.05810523 -0.17147781 0.18130746 0.016165942
000020 70 2f 46 3d 00 0a 89 bb 80 75 16 bc ba d7 e6 bd
       0.048385084 -0.0041821003 -0.009183288 -0.11271615
000030 be e2 4a 3e fe de 77 3e e0 3f 33 3e 00 d4 e0 bb
       0.19813058 0.24206159 0.17504835 -0.00686121
000040 2c 0d fd 3d 28 a9 47 3e b8 90 54 bd 5d 0e 83 3e
       0.12356028 0.19498122 -0.051895827 0.25596896
000050 64 17 a4 3d 4e df bd bd 1c cc 8c bd 93 fe 08 be
       0.08012274 -0.092711076 -0.06874868 -0.13378362
000060 58 ea 28 3e 5e bd 21 3e 34 ef e7 3d 75 aa 8b 3e
       0.16495645 0.15794894 0.11324921 0.27278486
000070 60 88 95 bd d4 34 20 3e 90 04 8c bc 60 6b 69 bd
       -0.07301402 0.15645152 -0.01709202 -0.056987166
000080 0a ed 04 be 5c c4 55 3e 60 3a bf bd 94 a6 29 3e
       -0.12981048 0.20875686 -0.09337306 0.16567451
000090 0e 2a b5 bd 2c 6f cd bd 20 87 b2 3d f0 18 10 be
       -0.08845912 -0.1003097 0.08717179 -0.14072013
0000a0 96 69 7c 3e c0 91 fc bc 45 6d 88 3e 00 94 9c 39
       0.24649653 -0.030831218 0.26645866 0.00029864907
0000b0 f2 5a 6c 3e a0 3e 9a 3c 12 71 7f 3e c0 fd 20 bc
       0.23081568 0.01882869 0.24945477 -0.009826124
0000c0 18 c9 39 3e 80 fb f6 bb 4f 2c 02 be 44 d8 67 be
       0.18143117 -0.0075373054 -0.12712215 -0.22641093
0000d0 50 38 0c 3d ce 12 15 be 22 95 15 be 15 96 7d be
       0.03423339 -0.14557955 -0.14607671 -0.24764283
0000e0 3c f7 81 3d 34 21 41 be 5c fd 54 bd e6 8b 6a 3e
       0.06345984 -0.18860322 -0.051999435 0.2290493
0000f0 56 91 b9 bd 2a cc 48 3e 37 13 66 be a0 6f 99 3d
       -0.09060924 0.19609132 -0.22468267 0.07491994
000100 ee dc 7b 3e d3 8f 40 be 4d 9e 51 be 1e 9d 46 be
       0.24595997 -0.18804865 -0.20470543 -0.19395873
000110 18 5f 1b 3d bf ea 62 be 0d 8c 8b be b5 3e 85 be
       0.037932485 -0.22159861 -0.27255288 -0.26024404
000120 e8 3c 5f be 60 d6 68 3d 12 79 03 3e 0e 65 7e 3e
       -0.21800578 0.05684507 0.12839153 0.24843237
000130 5b f7 8e 3e d4 0e 42 be 2e 4e 70 be 9c 5c 9d 3d
       0.27923092 -0.18950969 -0.23467323 0.076836795
000140 f2 1f 5e 3e dc 6f 68 be f0 e9 f4 3c d9 e0 82 be
       0.21691874 -0.22698921 0.029896706 -0.2556217
000150 ba f2 c4 bd 74 f1 04 3e 60 ee 8a be 40 f9 1e bc
       -0.09616609 0.12982732 -0.2713499 -0.0097029805
000160 68 d9 48 3d 44 07 4f be 1a ae 70 be 4a 00 96 bd
       0.04903546 -0.20217615 -0.23503914 -0.07324274
000170 4c 8e 59 be 96 54 38 be 10 72 71 be 7e 50 79 3e
       -0.21245688 -0.18001017 -0.23578668 0.24347112
000180 e8 c4 85 be 28 47 75 3d e2 a4 47 3e 00 4b d5 bc
       -0.2612679 0.059882313 0.19496492 -0.02603674
000190 2a 2d 18 be a4 a6 a9 3d 18 b4 4d 3e 9e 29 7b be
       -0.14860979 0.08283737 0.20088232 -0.24527594
0001a0 a0 0b 11 3d a0 d0 9f 3c e7 35 8c 3e 44 b1 7c bd
       0.035411477 0.01950866 0.27384874 -0.06169249
0001b0 76 99 41 3e 50 07 0a 3d f9 0a 0b be 86 72 09 3e
       0.18906197 0.03369838 -0.13578404 0.13422593
0001c0 d2 c6 da bd e0 79 50 bc e0 b9 6f bc 30 fd a1 3d
       -0.10682453 -0.01272437 -0.014631718 0.0790962
0001d0 f8 76 31 be 60 f6 51 3c ac bc 31 3e 18 a9 4c bd
       -0.17330539 0.012815088 0.17357129 -0.049965948
0001e0 8c e0 64 bd 52 db 6b 3e 92 96 30 3e e3 7f 16 be
       -0.055878207 0.23032883 0.17244938 -0.14697222
0001f0 80 39 06 be a6 87 b6 bd ed 85 89 3e a5 82 73 be
       -0.13107872 -0.08912592 0.2685999 -0.23780306
000200 8a 5d d4 bd 26 7c 60 3e 6e 81 5c 3e 68 c0 0e 3d
       -0.10369404 0.21922359 0.21533749 0.03485146
000210 4a cf 94 bd 0a 29 35 be 50 00 e9 bd 32 b1 05 be
       -0.072661 -0.17691436 -0.11377013 -0.13055876
000220 f4 ca ae 3d 38 f9 c3 bd d0 05 d6 3d 60 c9 93 3c
       0.08534804 -0.09569019 0.104503274 0.018040359
000230 14 53 c2 bd a0 12 4d 3e 94 da e3 3d 0c 15 6e bd
       -0.09488502 0.20026636 0.11125675 -0.05812554
000240 36 51 c9 bd 00 23 81 bc 40 70 69 bc 90 9c b6 3c
       -0.09829943 -0.01576376 -0.014247954 0.022291452
000250 a0 99 ae bc e3 f1 84 3e 24 2c 2c be 65 25 84 3e
       -0.021313488 0.25965795 -0.16813713 0.2580978
000260 c9 2e 70 be 5c a5 26 bd e0 38 1e 3e d0 fe ec bc
       -0.23455347 -0.040685043 0.15451384 -0.028930098
000270 d8 3c d8 3d 9a 09 b7 bd 63 f9 80 be c6 1e 75 3e
       0.1055848 -0.08937378 -0.25190267 0.2393752
000280 ef 49 81 3e be 58 30 3e 6d 69 84 3e 90 9c 46 3d
       0.2525172 0.17221352 0.25861683 0.048489153
000290 dc b7 c4 3d 26 41 a4 bd 9c ca ea 3d f0 66 65 bd
       0.09605381 -0.080202386 0.11464426 -0.056006372
0002a0 f2 a5 02 3e 12 bd 35 3e 70 5a d1 3c 38 6c d0 bd
       0.12758616 0.17747906 0.02555582 -0.10176891
0002b0 ff b4 6e be 42 53 b9 bd 6e 25 de bd f8 11 34 bd
       -0.23311232 -0.09049083 -0.10846983 -0.04396245
0002c0 88 6b 82 be fc 2c 5c 3e f4 e3 92 bd 98 eb 09 3d
       -0.25472665 0.21501535 -0.07172385 0.033671945
0002d0 8d e2 6d be 0b 2f 7e be dd cd 14 be b8 38 42 be
       -0.23230954 -0.24822633 -0.14531656 -0.18966949
0002e0 90 e5 2c be 46 1e 5f 3e ad db 1b be 28 d9 3f 3e
       -0.16884446 0.21788892 -0.15220518 0.18735182
0002f0 05 b5 8a 3e 56 8c 65 3e c0 1f e1 bb 5e 32 36 3e
       0.27091232 0.22416815 -0.00687024 0.17792651
000300 ee 59 36 be 34 ec 62 be a8 86 f9 3d 1a ad 47 be
       -0.17807743 -0.22160417 0.12183887 -0.19499627
000310 78 8f c3 bd 7d 39 55 be 74 70 33 bd 23 11 8a 3e
       -0.09548849 -0.20822711 -0.043808416 0.269662
000320 84 f6 18 be 46 d0 72 3e 20 8e 13 3e 06 d0 60 be
       -0.14937788 0.23712263 0.14409685 -0.21954355
000330 e2 4b 1b 3e aa 70 60 be 70 c1 a9 bc 00 d2 cb 3d
       0.15165666 -0.21917978 -0.020722121 0.09952164
000340 7d f6 8d be 84 e5 df bd fc 74 a0 3d 40 95 55 3c
       -0.27727118 -0.109324485 0.07834813 0.013036072
000350 ca dc 5e 3e 3a 0f 05 3e a0 87 47 be 94 a8 6b bd
       0.21763912 0.1299409 -0.1948533 -0.057533816
000360 60 16 e4 bd fc bf 34 be a8 67 3c bd e0 ac 5d be
       -0.1113708 -0.17651361 -0.04599729 -0.21647978
000370 64 db 85 3d dc 54 53 bd b8 80 a1 3d f1 3c 17 be
       0.06535986 -0.0515946 0.07885879 -0.14769341
000380 b2 eb 7d 3e 00 b9 12 bc f6 1d 73 3e b5 89 88 3e
       0.24796942 -0.00895524 0.23741898 0.26667562
000390 e6 ae 66 be f0 b2 e5 3d 00 b1 2b be ca 06 5f 3e
       -0.22527656 0.1121577 -0.16766739 0.21779934
0003a0 85 b0 18 be c0 ef ec bc c0 bb 1b 3c b2 5c 14 3e
       -0.14911087 -0.028922915 0.009505212 0.14488485
0003b0 b0 d0 b9 3d 86 bc 35 3e 20 8a 8b 3d 96 c9 cc bd
       0.09073007 0.17747697 0.06813455 -0.09999387
0003c0 00 27 4f 3d 9e 10 2e be b2 79 64 be fa 39 5a be
       0.050574303 -0.16998526 -0.22312048 -0.21311179
0003d0 ba a1 36 3e e8 0b 3b 3d 3d 62 32 be 30 23 04 be
       0.17835131 0.04566565 -0.17420287 -0.12904048
0003e0 88 8c 24 3d e2 a0 d7 bd 01 b5 8d be 6c 68 91 3d
       0.040173084 -0.10528733 -0.27677158 0.07099995
0003f0 96 1f f0 bd 90 61 69 bd 88 84 16 be d8 2c 2b 3e
       -0.117247745 -0.05697781 -0.14698994 0.16716325

tfl.pseudo_qconst i1 [64, 3, 3, 64]
000000 12 a1 54 8c 02 1b 7c e0 78 5c 3c a5 aa 73 15 01
       18 -95 84 -116 2 27 124 -32 120 92 60 -91 -86 115 21 1
000010 8b 60 c5 0c 68 35 44 af ef c4 e3 8c 4b df 55 04
       -117 96 -59 12 104 53 68 -81 -17 -60 -29 -116 75 -33 85 4
000020 fb 76 b2 b0 6b 24 dc da bf aa 1e ad be a6 da b4
       -5 118 -78 -80 107 36 -36 -38 -65 -86 30 -83 -66 -90 -38 -76
000030 7c c5 dd 4d f5 33 02 19 9c f8 60 28 26 5d 99 ab
       124 -59 -35 77 -11 51 2 25 -100 -8 96 40 38 93 -103 -85
000040 fb 16 2b 4f a8 21 8e 9a 77 c2 36 a5 ab 4f de 26
       -5 22 43 79 -88 33 -114 -102 119 -62 54 -91 -85 79 -34 38
000050 93 09 fe 03 4d b7 dc d7 36 92 c0 ad f3 3e 43 86
       -109 9 -2 3 77 -73 -36 -41 54 -110 -64 -83 -13 62 67 -122
000060 6d 77 d6 d2 52 99 52 be f5 45 1c 3c a9 b7 63 10
       109 119 -42 -46 82 -103 82 -66 -11 69 28 60 -87 -73 99 16
000070 f5 df 6f 5a 1b 28 a9 fb 35 e9 a1 4d 66 93 fb 02
       -11 -33 111 90 27 40 -87 -5 53 -23 -95 77 102 -109 -5 2
000080 23 6e 08 75 22 f0 61 b3 13 8e de e9 22 d7 26 7c
       35 110 8 117 34 -16 97 -77 19 -114 -34 -23 34 -41 38 124
000090 69 88 b5 63 93 68 08 33 7e 8b 36 09 6a 0b 43 22
       105 -120 -75 99 -109 104 8 51 126 -117 54 9 106 11 67 34
0000a0 c9 95 34 c8 ee ea 12 17 63 45 08 a0 04 de 3b 74
       -55 -107 52 -56 -18 -22 18 23 99 69 8 -96 4 -34 59 116
0000b0 27 bb 29 97 19 75 51 22 5b 52 e1 4f 2f 18 e8 3e
       39 -69 41 -105 25 117 81 34 91 82 -31 79 47 24 -24 62
0000c0 10 09 1e 7f 67 fc 75 17 1b c6 7b cf b7 65 93 39
       16 9 30 127 103 -4 117 23 27 -58 123 -49 -73 101 -109 57
0000d0 90 34 57 6e 97 6f e5 5a 18 79 5b ab ee 9c f7 82
       -112 52 87 110 -105 111 -27 90 24 121 91 -85 -18 -100 -9 -126
0000e0 68 ed f4 6c d9 1a 33 05 48 26 41 54 b7 93 03 ee
       104 -19 -12 108 -39 26 51 5 72 38 65 84 -73 -109 3 -18
0000f0 10 90 cc 89 64 40 58 5d 1c 23 0a 66 ec d9 b2 b6
       16 -112 -52 -119 100 64 88 93 28 35 10 102 -20 -39 -78 -74

tfl.pseudo_qconst1 i1 [64, 3, 3, 32]
000000 1a 97 3b 87 c6 6e 40 8e 1c 14 39 ee a4 28 e7 1b
       26 -105 59 -121 -58 110 64 -114 28 20 57 -18 -92 40 -25 27
000010 21 6c 73 b3 dc d9 1f c2 b3 0c 11 4a ec 55 74 a7
       33 108 115 -77 -36 -39 31 -62 -77 12 17 74 -20 85 116 -89
000020 97 fe f2 59 2e 73 e8 0f 8f bb e6 1a 90 ee eb a3
       -105 -2 -14 89 46 115 -24 15 -113 -69 -26 26 -112 -18 -21 -93
000030 10 0c 76 95 d7 39 69 e1 21 15 2a 97 86 6c 99 3c
       16 12 118 -107 -41 57 105 -31 33 21 42 -105 -122 108 -103 60
000040 de 44 f8 39 4b 1e 7e dc 9e ff 86 f9 ee e6 5d 66
       -34 68 -8 57 75 30 126 -36 -98 -1 -122 -7 -18 -26 93 102
000050 59 f3 da 64 59 23 f5 c5 6e 72 0a b1 c6 e2 69 7b
       89 -13 -38 100 89 35 -11 -59 110 114 10 -79 -58 -30 105 123
000060 8d 6c 2b ab cd 8c 17 42 fa a0 53 b6 89 31 3e 9b
       -115 108 43 -85 -51 -116 23 66 -6 -96 83 -74 -119 49 62 -101
000070 5f 8d 30 9c 6e 77 89 f4 cc 62 91 a7 bc 99 cf 8e
       95 -115 48 -100 110 119 -119 -12 -52 98 -111 -89 -68 -103 -49 -114
000080 c5 43 b3 24 44 75 4e 04 9f ea 8c c0 f3 32 be aa
       -59 67 -77 36 68 117 78 4 -97 -22 -116 -64 -13 50 -66 -86
000090 ce e6 0c 2f d2 24 28 23 83 21 42 3a 7c 7b c8 f2
       -50 -26 12 47 -46 36 40 35 -125 33 66 58 124 123 -56 -14
0000a0 42 6f 17 53 98 55 7f 43 a6 4b 0e a9 36 76 cb 3f
       66 111 23 83 -104 85 127 67 -90 75 14 -87 54 118 -53 63
0000b0 95 83 01 27 16 16 34 0e 3d f3 4e e6 7c 37 d0 61
       -107 -125 1 39 22 22 52 14 61 -13 78 -26 124 55 -48 97
0000c0 94 29 e6 f5 9c 52 cc 33 5a f9 ad d7 2d 5a a2 9e
       -108 41 -26 -11 -100 82 -52 51 90 -7 -83 -41 45 90 -94 -98
0000d0 c8 3c 1a 9e 3e 00 0e a9 69 54 14 2c a3 3c 00 a4
       -56 60 26 -98 62 0 14 -87 105 84 20 44 -93 60 0 -92
0000e0 50 0b 30 24 3f 48 4d 58 86 82 0c a3 44 d8 a0 ce
       80 11 48 36 63 72 77 88 -122 -126 12 -93 68 -40 -96 -50
0000f0 0b f1 7b da df 5f 52 79 c4 bd 8a fd 99 a4 27 50
       11 -15 123 -38 -33 95 82 121 -60 -67 -118 -3 -103 -92 39 80

tfl.pseudo_qconst2 i1 [64, 1024]
000000 3e 9f db b5 7d e1 d5 d8 4d 2a 8e 0c e8 2a 84 4c
       62 -97 -37 -75 125 -31 -43 -40 77 42 -114 12 -24 42 -124 76
000010 40 d8 90 7c 11 8e 32 31 7e fb 94 df 64 fd 24 87
       64 -40 -112 124 17 -114 50 49 126 -5 -108 -33 100 -3 36 -121
000020 da a8 f6 67 0d c3 fe 1b ae fe dd 35 c5 0f 8d 94
       -38 -88 -10 103 13 -61 -2 27 -82 -2 -35 53 -59 15 -115 -108
000030 8a 6a 2a 74 f6 2c b3 df 0f 5e 96 dc ea 97 d2 b9
       -118 106 42 116 -10 44 -77 -33 15 94 -106 -36 -22 -105 -46 -71
000040 b2 48 7d 70 84 3e 75 af 4b 90 8a a1 89 ad f8 40
       -78 72 125 112 -124 62 117 -81 75 -112 -118 -95 -119 -83 -8 64
000050 3c 31 be e0 ed ca 2b 31 1c 1f 2b e2 a8 9c ea 36
       60 49 -66 -32 -19 -54 43 49 28 31 43 -30 -88 -100 -22 54
000060 bb 6c 96 75 c6 57 b1 f7 d9 6e ca ee 76 8b af f9
       -69 108 -106 117 -58 87 -79 -9 -39 110 -54 -18 118 -117 -81 -7
000070 0c 62 f0 f8 05 7e cb a2 68 05 1f d9 f6 3d c9 90
       12 98 -16 -8 5 126 -53 -94 104 5 31 -39 -10 61 -55 -112
000080 ef 4b 36 11 23 31 ab be 3c 35 08 f8 70 b1 d6 7b
       -17 75 54 17 35 49 -85 -66 60 53 8 -8 112 -79 -42 123
000090 2b 0b be 4f d3 f3 b8 5c da b6 92 56 1f 7e ac aa
       43 11 -66 79 -45 -13 -72 92 -38 -74 -110 86 31 126 -84 -86
0000a0 c3 07 36 d4 18 d7 07 50 dd b3 a3 9e 3e 97 22 61
       -61 7 54 -44 24 -41 7 80 -35 -77 -93 -98 62 -105 34 97
0000b0 ac 4a ae 34 53 52 d5 e1 1e f4 46 33 32 9d 59 5d
       -84 74 -82 52 83 82 -43 -31 30 -12 70 51 50 -99 89 93
0000c0 3c 36 59 c1 8e 83 96 40 ac bd f2 70 be 16 b7 35
       60 54 89 -63 -114 -125 -106 64 -84 -67 -14 112 -66 22 -73 53
0000d0 29 83 81 b9 74 03 15 d2 70 05 b3 44 44 10 39 3f
       41 -125 -127 -71 116 3 21 -46 112 5 -77 68 68 16 57 63
0000e0 22 5d b6 e1 00 91 1f 52 cb 73 02 0e 19 0d df e9
       34 93 -74 -31 0 -111 31 82 -53 115 2 14 25 13 -33 -23
0000f0 64 94 b0 8c 56 49 8e 85 d5 8b a8 3d c9 bc 4e d3
       100 -108 -80 -116 86 73 -114 -123 -43 -117 -88 61 -55 -68 78 -45
